…
Use `eval_strategy` instead\n","  warnings.warn(\n"]}]},{"cell_type":"code","source":["model"],"metadata":{"colab":{"base_uri":"https://localhost:8080/"},"id":"civLZp7-j0WU","executionInfo":{"status":"ok","timestamp":1719636239617,"user_tz":-540,"elapsed":20,"user":{"displayName":"김수성","userId":"09570314636293598107"}},"outputId":"6d149e32-e812-4dbe-8b28-80906dd228b6"},"execution_count":27,"outputs":[{"output_type":"execute_result","data":{"text/plain":["XLMRobertaForSequenceClassification(\n","  (roberta): XLMRobertaModel(\n","    (embeddings): XLMRobertaEmbeddings(\n","      (word_embeddings): Embedding(250002, 768, padding_idx=1)\n","      (position_embeddings): Embedding(514, 768, padding_idx=1)\n","      (token_type_embeddings): Embedding(1, 768)\n","      (LayerNorm): LayerNorm((768,), eps=1e-05, elementwise_affine=True)\n","      (dropout): Dropout(p=0.1, inplace=False)\n","    )\n","    (encoder): XLMRobertaEncoder(\n","      (layer): ModuleList(\n","        (0-11): 12 x XLMRobertaLayer(\n","          (attention): XLMRobertaAttention(\n","            (self): XLMRobertaSelfAttention(\n","              (query): Linear(in_features=768, out_features=768, bias=True)\n","              (key): Linear(in_features=768, out_features=768, bias=True)\n","              (value): Linear(in_features=768, out_features=768, bias=True)\n","              (dropout): Dropout(p=0.1, inplace=False)\n","            )\n","            (output): XLMRobertaSelfOutput(\n","              (dense): Linear(in_features=768, out_features=768, bias=True)\n","              (LayerNorm): LayerNorm((768,), eps=1e-05, elementwise_affine=True)\n","              (dropout): Dropout(p=0.1, inplace=False)\n","            )\n","          )\n","          (intermediate): XLMRobertaIntermediate(\n","            (dense): Linear(in_features=768, out_features=3072, bias=True)\n","            (intermediate_act_fn): GELUActivation()\n","          )\n","          (output): XLMRobertaOutput(\n","            (dense): Linear(in_features=3072, out_features=768, bias=True)\n","            (LayerNorm): LayerNorm((768,), eps=1e-05, elementwise_affine=True)\n","            (dropout): Dropout(p=0.1, inplace=False)\n","          )\n","        )\n","      )\n","    )\n","  )\n","  (classifier): XLMRobertaClassificationHead(\n","    (dense): Linear(in_features=768, out_features=768, bias=True)\n","    (dropout): Dropout(p=0.1, inplace=False)\n","    (out_proj): Linear(in_features=768, out_features=7, bias=True)\n","  )\n",")"]},"metadata":{},"execution_count":27}]},{"cell_type":"code","source":["trainer= Trainer(model=model, args=training_args,\n","                 train_dataset=emotions_encoded[\"train\"], eval_dataset=emotions_encoded[\"valid\"],\n","                 tokenizer=tokenizer, compute_metrics=compute_metrics)\n","trainer.train()"],"metadata":{"cola
…
